…
I0216 02:21:58.979991 21024 solver.cpp:61] Creating training net from train_net file: /nfs.yoda/xiaolonw/fast_rcnn/fast-rcnn-distillation/scripts/scratch/train.prototxt
I0216 02:21:58.981197 21024 net.cpp:42] Initializing net from parameters: 
name: "CaffeNet"
state {
  phase: TRAIN
}
layer {
  name: "data"
  type: "Python"
  top: "data"
  top: "rois"
  top: "labels"
  top: "bbox_targets"
  top: "bbox_loss_weights"
  python_param {
    module: "roi_data_layer.layer_pi"
    layer: "RoIDataLayerPi"
    param_str: "--num_classes 20 --num_data 1"
  }
}
layer {
  name: "da_conv1"
  type: "Convolution"
  bottom: "data"
  top: "da_conv1"
  param {
    lr_mult: 1
    decay_mult: 1
  }
  param {
    lr_mult: 2
    decay_mult: 0
  }
  convolution_param {
    num_output: 96
    pad: 7
    kernel_size: 11
    stride: 4
    weight_filler {
      type: "gaussian"
      std: 0.01
    }
    bias_filler {
      type: "constant"
      value: 0
    }
  }
}
layer {
  name: "da_relu1"
  type: "ReLU"
  bottom: "da_conv1"
  top: "da_conv1"
}
layer {
  name: "da_pool1"
  type: "Pooling"
  bottom: "da_conv1"
  top: "da_pool1"
  pooling_param {
    pool: MAX
    kernel_size: 3
    stride: 2
    pad: 0
  }
}
layer {
  name: "da_norm1"
  type: "LRN"
  bottom: "da_pool1"
  top: "da_norm1"
  lrn_param {
    local_size: 5
    alpha: 0.0001
    beta: 0.75
  }
}
layer {
  name: "da_conv2"
  type: "Convolution"
  bottom: "da_norm1"
  top: "da_conv2"
  param {
    lr_mult: 1
    decay_mult: 1
  }
  param {
    lr_mult: 2
    decay_mult: 0
  }
  convolution_param {
    num_output: 256
    pad: 2
    kernel_size: 5
    group: 2
    stride: 1
    weight_filler {
      type: "gaussian"
      std: 0.01
    }
    bias_filler {
      type: "constant"
      value: 1
    }
  }
}
layer {
  name: "da_relu2"
  type: "ReLU"
  bottom: "da_conv2"
  top: "da_conv2"
}
layer {
  name: "da_pool2"
  type: "Pooling"
  bottom: "da_conv2"
  top: "da_pool2"
  pooling_param {
    pool: MAX
    kernel_size: 3
    stride: 2
    pad: 0
  }
}
layer {
  name: "da_norm2"
  type: "LRN"
  bottom: "da_pool2"
  top: "da_norm2"
  lrn_param {
    local_size: 5
    alpha: 0.0001
    beta: 0.75
  }
}
layer {
  name: "da_conv3"
  type: "Convolution"
  bottom: "da_norm2"
  top: "da_conv3"
  param {
    lr_mult: 1
    decay_mult: 1
  }
  param {
    lr_mult: 2
    decay_mult: 0
  }
  convolution_param {
    num_output: 384
    pad: 1
    kernel_size: 3
    stride: 1
    weight_filler {
      type: "gaussian"
      std: 0.01
    }
    bias_filler {
      type: "constant"
      value: 0
    }
  }
}
layer {
  name: "da_relu3"
  type: "ReLU"
  bottom: "da_conv3"
  top: "da_conv3"
}
layer {
  name: "da_conv4"
  type: "Convolution"
  bottom: "da_conv3"
  top: "da_conv4"
  param {
    lr_mult: 1
    decay_mult: 1
  }
  param {
    lr_mult: 2
    decay_mult: 0
  }
  convolution_param {
    num_output: 384
    pad: 1
    kernel_size: 3
    group: 2
    stride: 1
    weight_filler {
      type: "gaussian"
      std: 0.01
    }
    bias_filler {
      type: "constant"
      value: 1
    }
  }
}
layer {
  name: "da_relu4"
  type: "ReLU"
  bottom: "da_conv4"
  top: "da_conv4"
}
layer {
  name: "da_conv5"
  type: "Convolution"
  bottom: "da_conv4"
  top: "da_conv5"
  param {
    lr_mult: 1
    decay_mult: 1
  }
  param {
    lr_mult: 2
    decay_mult: 0
  }
  convolution_param {
    num_output: 256
    pad: 1
    kernel_size: 3
    group: 2
    stride: 1
    weight_filler {
      type: "gaussian"
      std: 0.01
    }
    bias_filler {
      type: "constant"
      value: 1
    }
  }
}
layer {
  name: "da_relu5"
  type: "ReLU"
  bottom: "da_conv5"
  top: "da_conv5"
}
layer {
  name: "da_roi_pool5"
  type: "ROIPooling"
  bottom: "da_conv5"
  bottom: "rois"
  top: "da_pool5"
  roi_pooling_param {
    pooled_h: 6
    pooled_w: 6
    spatial_scale: 0.0625
  }
}
layer {
  name: "da_fc6"
  type: "InnerProduct"
  bottom: "da_pool5"
  top: "da_fc6"
  param {
    lr_mult: 1
    decay_mult: 1
  }
  param {
    lr_mult: 2
    decay_mult: 0
  }
  inner_product_param {
    num_output: 4096
    weight_filler {
      type: "gaussian"
      std: 0.005
    }
    bias_filler {
      type: "constant"
      value: 1
    }
  }
}
layer {
  name: "da_relu6"
  type: "ReLU"
  bottom: "da_fc6"
  top: "da_fc6"
}
layer {
  name: "da_drop6"
  type: "Dropout"
  bottom: "da_fc6"
  top: "da_fc6"
  dropout_param {
    dropout_ratio: 0.5
  }
}
layer {
  name: "da_fc7"
  type: "InnerProduct"
  bottom: "da_fc6"
  top: "da_fc7"
  param {
    lr_mult: 1
    decay_mult: 1
  }
  param {
    lr_mult: 2
    decay_mult: 0
  }
  inner_product_param {
    num_output: 4096
    weight_filler {
      type: "gaussian"
      std: 0.005
    }
    bias_filler {
      type: "constant"
      value: 1
    }
  }
}
layer {
  name: "da_relu7"
  type: "ReLU"
  bottom: "da_fc7"
  top: "da_fc7"
}
layer {
  name: "da_drop7"
  type: "Dropout"
  bottom: "da_fc7"
  top: "da_fc7"
  dropout_param {
    dropout_ratio: 0.5
  }
}
layer {
  name: "da_cls_score"
  type: "InnerProduct"
  bottom: "da_fc7"
  top: "cls_score_1"
  param {
    lr_mult: 1
    decay_mult: 1
  }
  param {
    lr_mult: 2
    decay_mult: 0
  }
  inner_product_param {
    num_output: 20
    weight_filler {
      type: "gaussian"
      std: 0.01
    }
    bias_filler {
      type: "constant"
      value: 0
    }
  }
}
layer {
  name: "da_bbox_pred"
  type: "InnerProduct"
  bottom: "da_fc7"
  top: "bbox_pred_1"
  param {
    lr_mult: 1
    decay_mult: 1
  }
  param {
    lr_mult: 2
    decay_mult: 0
  }
  inner_product_param {
    num_output: 80
    weight_filler {
      type: "gaussian"
      std: 0.001
    }
    bias_filler {
      type: "constant"
      value: 0
    }
  }
}
layer {
  name: "da_loss_cls"
  type: "SoftmaxWithLoss"
  bottom: "cls_score_1"
  bottom: "labels"
  top: "da_loss_cls"
  loss_weight: 0.5
}
layer {
  name: "da_loss_bbox"
  type: "SmoothL1Loss"
  bottom: "bbox_pred_1"
  bottom: "bbox_targets"
  bottom: "bbox_loss_weights"
  top: "da_loss_bbox"
  loss_weight: 0.5
}
I0216 02:21:58.981333 21024 layer_factory.hpp:74] Creating layer data
I0216 02:21:58.984304 21024 net.cpp:84] Creating Layer data
I0216 02:21:58.984319 21024 net.cpp:338] data -> data
I0216 02:21:58.984333 21024 net.cpp:338] data -> rois
I0216 02:21:58.984340 21024 net.cpp:338] data -> labels
I0216 02:21:58.984346 21024 net.cpp:338] data -> bbox_targets
I0216 02:21:58.984354 21024 net.cpp:338] data -> bbox_loss_weights
I0216 02:21:58.984359 21024 net.cpp:113] Setting up data
I0216 02:21:58.985062 21024 net.cpp:120] Top shape: 1 6 100 100 (60000)
I0216 02:21:58.985074 21024 net.cpp:120] Top shape: 1 5 (5)
I0216 02:21:58.985080 21024 net.cpp:120] Top shape: 1 (1)
I0216 02:21:58.985082 21024 net.cpp:120] Top shape: 1 80 (80)
I0216 02:21:58.985086 21024 net.cpp:120] Top shape: 1 80 (80)
I0216 02:21:58.985090 21024 layer_factory.hpp:74] Creating layer da_conv1
I0216 02:21:58.985102 21024 net.cpp:84] Creating Layer da_conv1
I0216 02:21:58.985107 21024 net.cpp:380] da_conv1 <- data
I0216 02:21:58.985115 21024 net.cpp:338] da_conv1 -> da_conv1
I0216 02:21:58.985124 21024 net.cpp:113] Setting up da_conv1
I0216 02:21:58.986340 21024 net.cpp:120] Top shape: 1 96 26 26 (64896)
I0216 02:21:58.986354 21024 layer_factory.hpp:74] Creating layer da_relu1
I0216 02:21:58.986366 21024 net.cpp:84] Creating Layer da_relu1
I0216 02:21:58.986369 21024 net.cpp:380] da_relu1 <- da_conv1
I0216 02:21:58.986376 21024 net.cpp:327] da_relu1 -> da_conv1 (in-place)
I0216 02:21:58.986382 21024 net.cpp:113] Setting up da_relu1
I0216 02:21:58.986389 21024 net.cpp:120] Top shape: 1 96 26 26 (64896)
I0216 02:21:58.986393 21024 layer_factory.hpp:74] Creating layer da_pool1
I0216 02:21:58.986398 21024 net.cpp:84] Creating Layer da_pool1
I0216 02:21:58.986402 21024 net.cpp:380] da_pool1 <- da_conv1
I0216 02:21:58.986407 21024 net.cpp:338] da_pool1 -> da_pool1
I0216 02:21:58.986413 21024 net.cpp:113] Setting up da_pool1
I0216 02:21:58.986426 21024 net.cpp:120] Top shape: 1 96 13 13 (16224)
I0216 02:21:58.986430 21024 layer_factory.hpp:74] Creating layer da_norm1
I0216 02:21:58.986436 21024 net.cpp:84] Creating Layer da_norm1
I0216 02:21:58.986440 21024 net.cpp:380] da_norm1 <- da_pool1
I0216 02:21:58.986444 21024 net.cpp:338] da_norm1 -> da_norm1
I0216 02:21:58.986451 21024 net.cpp:113] Setting up da_norm1
I0216 02:21:58.986459 21024 net.cpp:120] Top shape: 1 96 13 13 (16224)
I0216 02:21:58.986464 21024 layer_factory.hpp:74] Creating layer da_conv2
I0216 02:21:58.986469 21024 net.cpp:84] Creating Layer da_conv2
I0216 02:21:58.986472 21024 net.cpp:380] da_conv2 <- da_norm1
I0216 02:21:58.986477 21024 net.cpp:338] da_conv2 -> da_conv2
I0216 02:21:58.986485 21024 net.cpp:113] Setting up da_conv2
I0216 02:21:58.991598 21024 net.cpp:120] Top shape: 1 256 13 13 (43264)
I0216 02:21:58.991613 21024 layer_factory.hpp:74] Creating layer da_relu2
I0216 02:21:58.991619 21024 net.cpp:84] Creating Layer da_relu2
I0216 02:21:58.991623 21024 net.cpp:380] da_relu2 <- da_conv2
I0216 02:21:58.991628 21024 net.cpp:327] da_relu2 -> da_conv2 (in-place)
I0216 02:21:58.991634 21024 net.cpp:113] Setting up da_relu2
I0216 02:21:58.991638 21024 net.cpp:120] Top shape: 1 256 13 13 (43264)
I0216 02:21:58.991641 21024 layer_factory.hpp:74] Creating layer da_pool2
I0216 02:21:58.991647 21024 net.cpp:84] Creating Layer da_pool2
I0216 02:21:58.991650 21024 net.cpp:380] da_pool2 <- da_conv2
I0216 02:21:58.991655 21024 net.cpp:338] da_pool2 -> da_pool2
I0216 02:21:58.991662 21024 net.cpp:113] Setting up da_pool2
I0216 02:21:58.991669 21024 net.cpp:120] Top shape: 1 256 6 6 (9216)
I0216 02:21:58.991673 21024 layer_factory.hpp:74] Creating layer da_norm2
I0216 02:21:58.991680 21024 net.cpp:84] Creating Layer da_norm2
I0216 02:21:58.991683 21024 net.cpp:380] da_norm2 <- da_pool2
I0216 02:21:58.991688 21024 net.cpp:338] da_norm2 -> da_norm2
I0216 02:21:58.991693 21024 net.cpp:113] Setting up da_norm2
I0216 02:21:58.991698 21024 net.cpp:120] Top shape: 1 256 6 6 (9216)
I0216 02:21:58.991703 21024 layer_factory.hpp:74] Creating layer da_conv3
I0216 02:21:58.991710 21024 net.cpp:84] Creating Layer da_conv3
I0216 02:21:58.991714 21024 net.cpp:380] da_conv3 <- da_norm2
I0216 02:21:58.991719 21024 net.cpp:338] da_conv3 -> da_conv3
I0216 02:21:58.991725 21024 net.cpp:113] Setting up da_conv3
I0216 02:21:59.006763 21024 net.cpp:120] Top shape: 1 384 6 6 (13824)
I0216 02:21:59.006777 21024 layer_factory.hpp:74] Creating layer da_relu3
I0216 02:21:59.006781 21024 net.cpp:84] Creating Layer da_relu3
I0216 02:21:59.006785 21024 net.cpp:380] da_relu3 <- da_conv3
I0216 02:21:59.006789 21024 net.cpp:327] da_relu3 -> da_conv3 (in-place)
I0216 02:21:59.006795 21024 net.cpp:113] Setting up da_relu3
I0216 02:21:59.006800 21024 net.cpp:120] Top shape: 1 384 6 6 (13824)
I0216 02:21:59.006803 21024 layer_factory.hpp:74] Creating layer da_conv4
I0216 02:21:59.006808 21024 net.cpp:84] Creating Layer da_conv4
I0216 02:21:59.006813 21024 net.cpp:380] da_conv4 <- da_conv3
I0216 02:21:59.006817 21024 net.cpp:338] da_conv4 -> da_conv4
I0216 02:21:59.006824 21024 net.cpp:113] Setting up da_conv4
I0216 02:21:59.017465 21024 net.cpp:120] Top shape: 1 384 6 6 (13824)
I0216 02:21:59.017478 21024 layer_factory.hpp:74] Creating layer da_relu4
I0216 02:21:59.017484 21024 net.cpp:84] Creating Layer da_relu4
I0216 02:21:59.017488 21024 net.cpp:380] da_relu4 <- da_conv4
I0216 02:21:59.017493 21024 net.cpp:327] da_relu4 -> da_conv4 (in-place)
I0216 02:21:59.017498 21024 net.cpp:113] Setting up da_relu4
I0216 02:21:59.017503 21024 net.cpp:120] Top shape: 1 384 6 6 (13824)
I0216 02:21:59.017504 21024 layer_factory.hpp:74] Creating layer da_conv5
I0216 02:21:59.017510 21024 net.cpp:84] Creating Layer da_conv5
I0216 02:21:59.017513 21024 net.cpp:380] da_conv5 <- da_conv4
I0216 02:21:59.017520 21024 net.cpp:338] da_conv5 -> da_conv5
I0216 02:21:59.017529 21024 net.cpp:113] Setting up da_conv5
I0216 02:21:59.025048 21024 net.cpp:120] Top shape: 1 256 6 6 (9216)
I0216 02:21:59.025060 21024 layer_factory.hpp:74] Creating layer da_relu5
I0216 02:21:59.025065 21024 net.cpp:84] Creating Layer da_relu5
I0216 02:21:59.025069 21024 net.cpp:380] da_relu5 <- da_conv5
I0216 02:21:59.025074 21024 net.cpp:327] da_relu5 -> da_conv5 (in-place)
I0216 02:21:59.025079 21024 net.cpp:113] Setting up da_relu5
I0216 02:21:59.025082 21024 net.cpp:120] Top shape: 1 256 6 6 (9216)
I0216 02:21:59.025085 21024 layer_factory.hpp:74] Creating layer da_roi_pool5
I0216 02:21:59.025096 21024 net.cpp:84] Creating Layer da_roi_pool5
I0216 02:21:59.025100 21024 net.cpp:380] da_roi_pool5 <- da_conv5
I0216 02:21:59.025104 21024 net.cpp:380] da_roi_pool5 <- rois
I0216 02:21:59.025110 21024 net.cpp:338] da_roi_pool5 -> da_pool5
I0216 02:21:59.025121 21024 net.cpp:113] Setting up da_roi_pool5
I0216 02:21:59.025126 21024 roi_pooling_layer.cpp:30] Spatial scale: 0.0625
I0216 02:21:59.025141 21024 net.cpp:120] Top shape: 1 256 6 6 (9216)
I0216 02:21:59.025146 21024 layer_factory.hpp:74] Creating layer da_fc6
I0216 02:21:59.025156 21024 net.cpp:84] Creating Layer da_fc6
I0216 02:21:59.025161 21024 net.cpp:380] da_fc6 <- da_pool5
I0216 02:21:59.025166 21024 net.cpp:338] da_fc6 -> da_fc6
I0216 02:21:59.025173 21024 net.cpp:113] Setting up da_fc6
I0216 02:21:59.617494 21024 net.cpp:120] Top shape: 1 4096 (4096)
I0216 02:21:59.617512 21024 layer_factory.hpp:74] Creating layer da_relu6
I0216 02:21:59.617522 21024 net.cpp:84] Creating Layer da_relu6
I0216 02:21:59.617525 21024 net.cpp:380] da_relu6 <- da_fc6
I0216 02:21:59.617532 21024 net.cpp:327] da_relu6 -> da_fc6 (in-place)
I0216 02:21:59.617540 21024 net.cpp:113] Setting up da_relu6
I0216 02:21:59.617545 21024 net.cpp:120] Top shape: 1 4096 (4096)
I0216 02:21:59.617548 21024 layer_factory.hpp:74] Creating layer da_drop6
I0216 02:21:59.617560 21024 net.cpp:84] Creating Layer da_drop6
I0216 02:21:59.617564 21024 net.cpp:380] da_drop6 <- da_fc6
I0216 02:21:59.617568 21024 net.cpp:327] da_drop6 -> da_fc6 (in-place)
I0216 02:21:59.617574 21024 net.cpp:113] Setting up da_drop6
I0216 02:21:59.617581 21024 net.cpp:120] Top shape: 1 4096 (4096)
I0216 02:21:59.617586 21024 layer_factory.hpp:74] Creating layer da_fc7
I0216 02:21:59.617593 21024 net.cpp:84] Creating Layer da_fc7
I0216 02:21:59.617596 21024 net.cpp:380] da_fc7 <- da_fc6
I0216 02:21:59.617602 21024 net.cpp:338] da_fc7 -> da_fc7
I0216 02:21:59.617612 21024 net.cpp:113] Setting up da_fc7
I0216 02:21:59.963498 21024 net.cpp:120] Top shape: 1 4096 (4096)
I0216 02:21:59.963521 21024 layer_factory.hpp:74] Creating layer da_relu7
I0216 02:21:59.963529 21024 net.cpp:84] Creating Layer da_relu7
I0216 02:21:59.963534 21024 net.cpp:380] da_relu7 <- da_fc7
I0216 02:21:59.963542 21024 net.cpp:327] da_relu7 -> da_fc7 (in-place)
I0216 02:21:59.963551 21024 net.cpp:113] Setting up da_relu7
I0216 02:21:59.963557 21024 net.cpp:120] Top shape: 1 4096 (4096)
I0216 02:21:59.963560 21024 layer_factory.hpp:74] Creating layer da_drop7
I0216 02:21:59.963567 21024 net.cpp:84] Creating Layer da_drop7
I0216 02:21:59.963570 21024 net.cpp:380] da_drop7 <- da_fc7
I0216 02:21:59.963574 21024 net.cpp:327] da_drop7 -> da_fc7 (in-place)
I0216 02:21:59.963580 21024 net.cpp:113] Setting up da_drop7
I0216 02:21:59.963587 21024 net.cpp:120] Top shape: 1 4096 (4096)
I0216 02:21:59.963592 21024 layer_factory.hpp:74] Creating layer da_fc7_da_drop7_0_split
I0216 02:21:59.963598 21024 net.cpp:84] Creating Layer da_fc7_da_drop7_0_split
I0216 02:21:59.963603 21024 net.cpp:380] da_fc7_da_drop7_0_split <- da_fc7
I0216 02:21:59.963606 21024 net.cpp:338] da_fc7_da_drop7_0_split -> da_fc7_da_drop7_0_split_0
I0216 02:21:59.963613 21024 net.cpp:338] da_fc7_da_drop7_0_split -> da_fc7_da_drop7_0_split_1
I0216 02:21:59.963619 21024 net.cpp:113] Setting up da_fc7_da_drop7_0_split
I0216 02:21:59.963625 21024 net.cpp:120] Top shape: 1 4096 (4096)
I0216 02:21:59.963630 21024 net.cpp:120] Top shape: 1 4096 (4096)
I0216 02:21:59.963634 21024 layer_factory.hpp:74] Creating layer da_cls_score
I0216 02:21:59.963642 21024 net.cpp:84] Creating Layer da_cls_score
I0216 02:21:59.963646 21024 net.cpp:380] da_cls_score <- da_fc7_da_drop7_0_split_0
I0216 02:21:59.963654 21024 net.cpp:338] da_cls_score -> cls_score_1
I0216 02:21:59.963660 21024 net.cpp:113] Setting up da_cls_score
I0216 02:21:59.965061 21024 net.cpp:120] Top shape: 1 20 (20)
I0216 02:21:59.965070 21024 layer_factory.hpp:74] Creating layer da_bbox_pred
I0216 02:21:59.965076 21024 net.cpp:84] Creating Layer da_bbox_pred
I0216 02:21:59.965080 21024 net.cpp:380] da_bbox_pred <- da_fc7_da_drop7_0_split_1
I0216 02:21:59.965085 21024 net.cpp:338] da_bbox_pred -> bbox_pred_1
I0216 02:21:59.965090 21024 net.cpp:113] Setting up da_bbox_pred
I0216 02:21:59.970602 21024 net.cpp:120] Top shape: 1 80 (80)
I0216 02:21:59.970616 21024 layer_factory.hpp:74] Creating layer da_loss_cls
I0216 02:21:59.970626 21024 net.cpp:84] Creating Layer da_loss_cls
I0216 02:21:59.970630 21024 net.cpp:380] da_loss_cls <- cls_score_1
I0216 02:21:59.970634 21024 net.cpp:380] da_loss_cls <- labels
I0216 02:21:59.970640 21024 net.cpp:338] da_loss_cls -> da_loss_cls
I0216 02:21:59.970646 21024 net.cpp:113] Setting up da_loss_cls
…
