…
I0216 12:56:33.429342 30803 solver.cpp:61] Creating training net from train_net file: /nfs.yoda/xiaolonw/fast_rcnn/fast-rcnn-distillation/scripts/scratch/train.prototxt
I0216 12:56:33.430541 30803 net.cpp:42] Initializing net from parameters: 
name: "CaffeNet"
state {
  phase: TRAIN
}
layer {
  name: "data"
  type: "Python"
  top: "data"
  top: "rois"
  top: "labels"
  top: "bbox_targets"
  top: "bbox_loss_weights"
  python_param {
    module: "roi_data_layer.layer_pi"
    layer: "RoIDataLayerPi"
    param_str: "--num_classes 20 --num_data 1"
  }
}
layer {
  name: "da_conv1"
  type: "Convolution"
  bottom: "data"
  top: "da_conv1"
  param {
    lr_mult: 1
    decay_mult: 1
  }
  param {
    lr_mult: 2
    decay_mult: 0
  }
  convolution_param {
    num_output: 96
    pad: 7
    kernel_size: 11
    stride: 4
    weight_filler {
      type: "gaussian"
      std: 0.01
    }
    bias_filler {
      type: "constant"
      value: 0
    }
  }
}
layer {
  name: "da_relu1"
  type: "ReLU"
  bottom: "da_conv1"
  top: "da_conv1"
}
layer {
  name: "da_pool1"
  type: "Pooling"
  bottom: "da_conv1"
  top: "da_pool1"
  pooling_param {
    pool: MAX
    kernel_size: 3
    stride: 2
    pad: 0
  }
}
layer {
  name: "da_norm1"
  type: "LRN"
  bottom: "da_pool1"
  top: "da_norm1"
  lrn_param {
    local_size: 5
    alpha: 0.0001
    beta: 0.75
  }
}
layer {
  name: "da_conv2"
  type: "Convolution"
  bottom: "da_norm1"
  top: "da_conv2"
  param {
    lr_mult: 1
    decay_mult: 1
  }
  param {
    lr_mult: 2
    decay_mult: 0
  }
  convolution_param {
    num_output: 256
    pad: 2
    kernel_size: 5
    group: 2
    stride: 1
    weight_filler {
      type: "gaussian"
      std: 0.01
    }
    bias_filler {
      type: "constant"
      value: 1
    }
  }
}
layer {
  name: "da_relu2"
  type: "ReLU"
  bottom: "da_conv2"
  top: "da_conv2"
}
layer {
  name: "da_pool2"
  type: "Pooling"
  bottom: "da_conv2"
  top: "da_pool2"
  pooling_param {
    pool: MAX
    kernel_size: 3
    stride: 2
    pad: 0
  }
}
layer {
  name: "da_norm2"
  type: "LRN"
  bottom: "da_pool2"
  top: "da_norm2"
  lrn_param {
    local_size: 5
    alpha: 0.0001
    beta: 0.75
  }
}
layer {
  name: "da_conv3"
  type: "Convolution"
  bottom: "da_norm2"
  top: "da_conv3"
  param {
    lr_mult: 1
    decay_mult: 1
  }
  param {
    lr_mult: 2
    decay_mult: 0
  }
  convolution_param {
    num_output: 384
    pad: 1
    kernel_size: 3
    stride: 1
    weight_filler {
      type: "gaussian"
      std: 0.01
    }
    bias_filler {
      type: "constant"
      value: 0
    }
  }
}
layer {
  name: "da_relu3"
  type: "ReLU"
  bottom: "da_conv3"
  top: "da_conv3"
}
layer {
  name: "da_conv4"
  type: "Convolution"
  bottom: "da_conv3"
  top: "da_conv4"
  param {
    lr_mult: 1
    decay_mult: 1
  }
  param {
    lr_mult: 2
    decay_mult: 0
  }
  convolution_param {
    num_output: 384
    pad: 1
    kernel_size: 3
    group: 2
    stride: 1
    weight_filler {
      type: "gaussian"
      std: 0.01
    }
    bias_filler {
      type: "constant"
      value: 1
    }
  }
}
layer {
  name: "da_relu4"
  type: "ReLU"
  bottom: "da_conv4"
  top: "da_conv4"
}
layer {
  name: "da_conv5"
  type: "Convolution"
  bottom: "da_conv4"
  top: "da_conv5"
  param {
    lr_mult: 1
    decay_mult: 1
  }
  param {
    lr_mult: 2
    decay_mult: 0
  }
  convolution_param {
    num_output: 256
    pad: 1
    kernel_size: 3
    group: 2
    stride: 1
    weight_filler {
      type: "gaussian"
      std: 0.01
    }
    bias_filler {
      type: "constant"
      value: 1
    }
  }
}
layer {
  name: "da_relu5"
  type: "ReLU"
  bottom: "da_conv5"
  top: "da_conv5"
}
layer {
  name: "da_roi_pool5"
  type: "ROIPooling"
  bottom: "da_conv5"
  bottom: "rois"
  top: "da_pool5"
  roi_pooling_param {
    pooled_h: 6
    pooled_w: 6
    spatial_scale: 0.0625
  }
}
layer {
  name: "da_fc6"
  type: "InnerProduct"
  bottom: "da_pool5"
  top: "da_fc6"
  param {
    lr_mult: 1
    decay_mult: 1
  }
  param {
    lr_mult: 2
    decay_mult: 0
  }
  inner_product_param {
    num_output: 4096
    weight_filler {
      type: "gaussian"
      std: 0.005
    }
    bias_filler {
      type: "constant"
      value: 1
    }
  }
}
layer {
  name: "da_relu6"
  type: "ReLU"
  bottom: "da_fc6"
  top: "da_fc6"
}
layer {
  name: "da_drop6"
  type: "Dropout"
  bottom: "da_fc6"
  top: "da_fc6"
  dropout_param {
    dropout_ratio: 0.5
  }
}
layer {
  name: "da_fc7"
  type: "InnerProduct"
  bottom: "da_fc6"
  top: "da_fc7"
  param {
    lr_mult: 1
    decay_mult: 1
  }
  param {
    lr_mult: 2
    decay_mult: 0
  }
  inner_product_param {
    num_output: 4096
    weight_filler {
      type: "gaussian"
      std: 0.005
    }
    bias_filler {
      type: "constant"
      value: 1
    }
  }
}
layer {
  name: "da_relu7"
  type: "ReLU"
  bottom: "da_fc7"
  top: "da_fc7"
}
layer {
  name: "da_drop7"
  type: "Dropout"
  bottom: "da_fc7"
  top: "da_fc7"
  dropout_param {
    dropout_ratio: 0.5
  }
}
layer {
  name: "da_cls_score"
  type: "InnerProduct"
  bottom: "da_fc7"
  top: "cls_score_1"
  param {
    lr_mult: 1
    decay_mult: 1
  }
  param {
    lr_mult: 2
    decay_mult: 0
  }
  inner_product_param {
    num_output: 20
    weight_filler {
      type: "gaussian"
      std: 0.01
    }
    bias_filler {
      type: "constant"
      value: 0
    }
  }
}
layer {
  name: "da_bbox_pred"
  type: "InnerProduct"
  bottom: "da_fc7"
  top: "bbox_pred_1"
  param {
    lr_mult: 1
    decay_mult: 1
  }
  param {
    lr_mult: 2
    decay_mult: 0
  }
  inner_product_param {
    num_output: 80
    weight_filler {
      type: "gaussian"
      std: 0.001
    }
    bias_filler {
      type: "constant"
      value: 0
    }
  }
}
layer {
  name: "da_loss_cls"
  type: "SoftmaxWithLoss"
  bottom: "cls_score_1"
  bottom: "labels"
  top: "da_loss_cls"
  loss_weight: 0.5
}
layer {
  name: "da_loss_bbox"
  type: "SmoothL1Loss"
  bottom: "bbox_pred_1"
  bottom: "bbox_targets"
  bottom: "bbox_loss_weights"
  top: "da_loss_bbox"
  loss_weight: 0.5
}
I0216 12:56:33.430678 30803 layer_factory.hpp:74] Creating layer data
I0216 12:56:33.433002 30803 net.cpp:84] Creating Layer data
I0216 12:56:33.433018 30803 net.cpp:338] data -> data
I0216 12:56:33.433032 30803 net.cpp:338] data -> rois
I0216 12:56:33.433040 30803 net.cpp:338] data -> labels
I0216 12:56:33.433048 30803 net.cpp:338] data -> bbox_targets
I0216 12:56:33.433053 30803 net.cpp:338] data -> bbox_loss_weights
I0216 12:56:33.433060 30803 net.cpp:113] Setting up data
I0216 12:56:33.433778 30803 net.cpp:120] Top shape: 1 6 100 100 (60000)
I0216 12:56:33.433789 30803 net.cpp:120] Top shape: 1 5 (5)
I0216 12:56:33.433794 30803 net.cpp:120] Top shape: 1 (1)
I0216 12:56:33.433797 30803 net.cpp:120] Top shape: 1 80 (80)
I0216 12:56:33.433801 30803 net.cpp:120] Top shape: 1 80 (80)
I0216 12:56:33.433805 30803 layer_factory.hpp:74] Creating layer da_conv1
I0216 12:56:33.433818 30803 net.cpp:84] Creating Layer da_conv1
I0216 12:56:33.433823 30803 net.cpp:380] da_conv1 <- data
I0216 12:56:33.433831 30803 net.cpp:338] da_conv1 -> da_conv1
I0216 12:56:33.433840 30803 net.cpp:113] Setting up da_conv1
I0216 12:56:33.435050 30803 net.cpp:120] Top shape: 1 96 26 26 (64896)
I0216 12:56:33.435063 30803 layer_factory.hpp:74] Creating layer da_relu1
I0216 12:56:33.435070 30803 net.cpp:84] Creating Layer da_relu1
I0216 12:56:33.435075 30803 net.cpp:380] da_relu1 <- da_conv1
I0216 12:56:33.435081 30803 net.cpp:327] da_relu1 -> da_conv1 (in-place)
I0216 12:56:33.435086 30803 net.cpp:113] Setting up da_relu1
I0216 12:56:33.435093 30803 net.cpp:120] Top shape: 1 96 26 26 (64896)
I0216 12:56:33.435096 30803 layer_factory.hpp:74] Creating layer da_pool1
I0216 12:56:33.435102 30803 net.cpp:84] Creating Layer da_pool1
I0216 12:56:33.435106 30803 net.cpp:380] da_pool1 <- da_conv1
I0216 12:56:33.435111 30803 net.cpp:338] da_pool1 -> da_pool1
I0216 12:56:33.435117 30803 net.cpp:113] Setting up da_pool1
I0216 12:56:33.435128 30803 net.cpp:120] Top shape: 1 96 13 13 (16224)
I0216 12:56:33.435132 30803 layer_factory.hpp:74] Creating layer da_norm1
I0216 12:56:33.435139 30803 net.cpp:84] Creating Layer da_norm1
I0216 12:56:33.435143 30803 net.cpp:380] da_norm1 <- da_pool1
I0216 12:56:33.435148 30803 net.cpp:338] da_norm1 -> da_norm1
I0216 12:56:33.435154 30803 net.cpp:113] Setting up da_norm1
I0216 12:56:33.435163 30803 net.cpp:120] Top shape: 1 96 13 13 (16224)
I0216 12:56:33.435166 30803 layer_factory.hpp:74] Creating layer da_conv2
I0216 12:56:33.435171 30803 net.cpp:84] Creating Layer da_conv2
I0216 12:56:33.435175 30803 net.cpp:380] da_conv2 <- da_norm1
I0216 12:56:33.435181 30803 net.cpp:338] da_conv2 -> da_conv2
I0216 12:56:33.435187 30803 net.cpp:113] Setting up da_conv2
I0216 12:56:33.440301 30803 net.cpp:120] Top shape: 1 256 13 13 (43264)
I0216 12:56:33.440312 30803 layer_factory.hpp:74] Creating layer da_relu2
I0216 12:56:33.440317 30803 net.cpp:84] Creating Layer da_relu2
I0216 12:56:33.440321 30803 net.cpp:380] da_relu2 <- da_conv2
I0216 12:56:33.440326 30803 net.cpp:327] da_relu2 -> da_conv2 (in-place)
I0216 12:56:33.440331 30803 net.cpp:113] Setting up da_relu2
I0216 12:56:33.440335 30803 net.cpp:120] Top shape: 1 256 13 13 (43264)
I0216 12:56:33.440338 30803 layer_factory.hpp:74] Creating layer da_pool2
I0216 12:56:33.440342 30803 net.cpp:84] Creating Layer da_pool2
I0216 12:56:33.440346 30803 net.cpp:380] da_pool2 <- da_conv2
I0216 12:56:33.440349 30803 net.cpp:338] da_pool2 -> da_pool2
I0216 12:56:33.440354 30803 net.cpp:113] Setting up da_pool2
I0216 12:56:33.440361 30803 net.cpp:120] Top shape: 1 256 6 6 (9216)
I0216 12:56:33.440363 30803 layer_factory.hpp:74] Creating layer da_norm2
I0216 12:56:33.440368 30803 net.cpp:84] Creating Layer da_norm2
I0216 12:56:33.440371 30803 net.cpp:380] da_norm2 <- da_pool2
I0216 12:56:33.440376 30803 net.cpp:338] da_norm2 -> da_norm2
I0216 12:56:33.440381 30803 net.cpp:113] Setting up da_norm2
I0216 12:56:33.440385 30803 net.cpp:120] Top shape: 1 256 6 6 (9216)
I0216 12:56:33.440387 30803 layer_factory.hpp:74] Creating layer da_conv3
I0216 12:56:33.440393 30803 net.cpp:84] Creating Layer da_conv3
I0216 12:56:33.440397 30803 net.cpp:380] da_conv3 <- da_norm2
I0216 12:56:33.440402 30803 net.cpp:338] da_conv3 -> da_conv3
I0216 12:56:33.440407 30803 net.cpp:113] Setting up da_conv3
I0216 12:56:33.455576 30803 net.cpp:120] Top shape: 1 384 6 6 (13824)
I0216 12:56:33.455590 30803 layer_factory.hpp:74] Creating layer da_relu3
I0216 12:56:33.455596 30803 net.cpp:84] Creating Layer da_relu3
I0216 12:56:33.455600 30803 net.cpp:380] da_relu3 <- da_conv3
I0216 12:56:33.455605 30803 net.cpp:327] da_relu3 -> da_conv3 (in-place)
I0216 12:56:33.455611 30803 net.cpp:113] Setting up da_relu3
I0216 12:56:33.455616 30803 net.cpp:120] Top shape: 1 384 6 6 (13824)
I0216 12:56:33.455620 30803 layer_factory.hpp:74] Creating layer da_conv4
I0216 12:56:33.455626 30803 net.cpp:84] Creating Layer da_conv4
I0216 12:56:33.455629 30803 net.cpp:380] da_conv4 <- da_conv3
I0216 12:56:33.455634 30803 net.cpp:338] da_conv4 -> da_conv4
I0216 12:56:33.455641 30803 net.cpp:113] Setting up da_conv4
I0216 12:56:33.466959 30803 net.cpp:120] Top shape: 1 384 6 6 (13824)
I0216 12:56:33.466969 30803 layer_factory.hpp:74] Creating layer da_relu4
I0216 12:56:33.466974 30803 net.cpp:84] Creating Layer da_relu4
I0216 12:56:33.466977 30803 net.cpp:380] da_relu4 <- da_conv4
I0216 12:56:33.466981 30803 net.cpp:327] da_relu4 -> da_conv4 (in-place)
I0216 12:56:33.466986 30803 net.cpp:113] Setting up da_relu4
I0216 12:56:33.466990 30803 net.cpp:120] Top shape: 1 384 6 6 (13824)
I0216 12:56:33.466994 30803 layer_factory.hpp:74] Creating layer da_conv5
I0216 12:56:33.467000 30803 net.cpp:84] Creating Layer da_conv5
I0216 12:56:33.467003 30803 net.cpp:380] da_conv5 <- da_conv4
I0216 12:56:33.467008 30803 net.cpp:338] da_conv5 -> da_conv5
I0216 12:56:33.467015 30803 net.cpp:113] Setting up da_conv5
I0216 12:56:33.474580 30803 net.cpp:120] Top shape: 1 256 6 6 (9216)
I0216 12:56:33.474589 30803 layer_factory.hpp:74] Creating layer da_relu5
I0216 12:56:33.474594 30803 net.cpp:84] Creating Layer da_relu5
I0216 12:56:33.474597 30803 net.cpp:380] da_relu5 <- da_conv5
I0216 12:56:33.474602 30803 net.cpp:327] da_relu5 -> da_conv5 (in-place)
I0216 12:56:33.474607 30803 net.cpp:113] Setting up da_relu5
I0216 12:56:33.474612 30803 net.cpp:120] Top shape: 1 256 6 6 (9216)
I0216 12:56:33.474614 30803 layer_factory.hpp:74] Creating layer da_roi_pool5
I0216 12:56:33.474625 30803 net.cpp:84] Creating Layer da_roi_pool5
I0216 12:56:33.474629 30803 net.cpp:380] da_roi_pool5 <- da_conv5
I0216 12:56:33.474633 30803 net.cpp:380] da_roi_pool5 <- rois
I0216 12:56:33.474639 30803 net.cpp:338] da_roi_pool5 -> da_pool5
I0216 12:56:33.474647 30803 net.cpp:113] Setting up da_roi_pool5
I0216 12:56:33.474652 30803 roi_pooling_layer.cpp:30] Spatial scale: 0.0625
I0216 12:56:33.474665 30803 net.cpp:120] Top shape: 1 256 6 6 (9216)
I0216 12:56:33.474669 30803 layer_factory.hpp:74] Creating layer da_fc6
I0216 12:56:33.474680 30803 net.cpp:84] Creating Layer da_fc6
I0216 12:56:33.474684 30803 net.cpp:380] da_fc6 <- da_pool5
I0216 12:56:33.474692 30803 net.cpp:338] da_fc6 -> da_fc6
I0216 12:56:33.474700 30803 net.cpp:113] Setting up da_fc6
I0216 12:56:34.993562 30803 net.cpp:120] Top shape: 1 4096 (4096)
I0216 12:56:34.993587 30803 layer_factory.hpp:74] Creating layer da_relu6
I0216 12:56:34.993599 30803 net.cpp:84] Creating Layer da_relu6
I0216 12:56:34.993605 30803 net.cpp:380] da_relu6 <- da_fc6
I0216 12:56:34.993614 30803 net.cpp:327] da_relu6 -> da_fc6 (in-place)
I0216 12:56:34.993623 30803 net.cpp:113] Setting up da_relu6
I0216 12:56:34.993628 30803 net.cpp:120] Top shape: 1 4096 (4096)
I0216 12:56:34.993633 30803 layer_factory.hpp:74] Creating layer da_drop6
I0216 12:56:34.993645 30803 net.cpp:84] Creating Layer da_drop6
I0216 12:56:34.993649 30803 net.cpp:380] da_drop6 <- da_fc6
I0216 12:56:34.993655 30803 net.cpp:327] da_drop6 -> da_fc6 (in-place)
I0216 12:56:34.993662 30803 net.cpp:113] Setting up da_drop6
I0216 12:56:34.993670 30803 net.cpp:120] Top shape: 1 4096 (4096)
I0216 12:56:34.993674 30803 layer_factory.hpp:74] Creating layer da_fc7
I0216 12:56:34.993682 30803 net.cpp:84] Creating Layer da_fc7
I0216 12:56:34.993686 30803 net.cpp:380] da_fc7 <- da_fc6
I0216 12:56:34.993691 30803 net.cpp:338] da_fc7 -> da_fc7
I0216 12:56:34.993702 30803 net.cpp:113] Setting up da_fc7
I0216 12:56:35.279003 30803 net.cpp:120] Top shape: 1 4096 (4096)
I0216 12:56:35.279022 30803 layer_factory.hpp:74] Creating layer da_relu7
I0216 12:56:35.279033 30803 net.cpp:84] Creating Layer da_relu7
I0216 12:56:35.279042 30803 net.cpp:380] da_relu7 <- da_fc7
I0216 12:56:35.279048 30803 net.cpp:327] da_relu7 -> da_fc7 (in-place)
I0216 12:56:35.279057 30803 net.cpp:113] Setting up da_relu7
I0216 12:56:35.279062 30803 net.cpp:120] Top shape: 1 4096 (4096)
I0216 12:56:35.279067 30803 layer_factory.hpp:74] Creating layer da_drop7
I0216 12:56:35.279074 30803 net.cpp:84] Creating Layer da_drop7
I0216 12:56:35.279078 30803 net.cpp:380] da_drop7 <- da_fc7
I0216 12:56:35.279083 30803 net.cpp:327] da_drop7 -> da_fc7 (in-place)
I0216 12:56:35.279088 30803 net.cpp:113] Setting up da_drop7
I0216 12:56:35.279094 30803 net.cpp:120] Top shape: 1 4096 (4096)
I0216 12:56:35.279098 30803 layer_factory.hpp:74] Creating layer da_fc7_da_drop7_0_split
I0216 12:56:35.279105 30803 net.cpp:84] Creating Layer da_fc7_da_drop7_0_split
I0216 12:56:35.279109 30803 net.cpp:380] da_fc7_da_drop7_0_split <- da_fc7
I0216 12:56:35.279114 30803 net.cpp:338] da_fc7_da_drop7_0_split -> da_fc7_da_drop7_0_split_0
I0216 12:56:35.279122 30803 net.cpp:338] da_fc7_da_drop7_0_split -> da_fc7_da_drop7_0_split_1
I0216 12:56:35.279129 30803 net.cpp:113] Setting up da_fc7_da_drop7_0_split
I0216 12:56:35.279134 30803 net.cpp:120] Top shape: 1 4096 (4096)
I0216 12:56:35.279139 30803 net.cpp:120] Top shape: 1 4096 (4096)
I0216 12:56:35.279142 30803 layer_factory.hpp:74] Creating layer da_cls_score
I0216 12:56:35.279150 30803 net.cpp:84] Creating Layer da_cls_score
I0216 12:56:35.279153 30803 net.cpp:380] da_cls_score <- da_fc7_da_drop7_0_split_0
I0216 12:56:35.279160 30803 net.cpp:338] da_cls_score -> cls_score_1
I0216 12:56:35.279166 30803 net.cpp:113] Setting up da_cls_score
I0216 12:56:35.280550 30803 net.cpp:120] Top shape: 1 20 (20)
I0216 12:56:35.280560 30803 layer_factory.hpp:74] Creating layer da_bbox_pred
I0216 12:56:35.280565 30803 net.cpp:84] Creating Layer da_bbox_pred
I0216 12:56:35.280570 30803 net.cpp:380] da_bbox_pred <- da_fc7_da_drop7_0_split_1
I0216 12:56:35.280575 30803 net.cpp:338] da_bbox_pred -> bbox_pred_1
I0216 12:56:35.280581 30803 net.cpp:113] Setting up da_bbox_pred
I0216 12:56:35.286077 30803 net.cpp:120] Top shape: 1 80 (80)
I0216 12:56:35.286094 30803 layer_factory.hpp:74] Creating layer da_loss_cls
I0216 12:56:35.286106 30803 net.cpp:84] Creating Layer da_loss_cls
I0216 12:56:35.286109 30803 net.cpp:380] da_loss_cls <- cls_score_1
I0216 12:56:35.286114 30803 net.cpp:380] da_loss_cls <- labels
I0216 12:56:35.286121 30803 net.cpp:338] da_loss_cls -> da_loss_cls
I0216 12:56:35.286128 30803 net.cpp:113] Setting up da_loss_cls
…
